4_Neural-network-model/parameters/ctrnn-0.1-512-128-500000.pth (torch, 6789 bytes, 4 tensors)

cell.layer_context.weight f4 [34, 32]
00000000: 9e12 03be 3956 2b3e 35be 90be 7c29 0fbe
00000010: 01ad 2abe a852 9dbd 6b5e 333f 8fac 3fbf
00000020: 10a1 27bf 9fd9 febd 1b16 b0bd db8e b1be
00000030: 71a5 7ebf 287f 4fbf a5be b33e ef9f 533f
00000040: c32f 663f c345 053e ab1b f0be 8a7c 15be
00000050: 6872 823e dae0 693e 3ac8 0cbf 3a71 9d3e
00000060: ea0e e73d 94e1 42bc e68f 613f 8979 62be
00000070: a9c0 8f3d 7491 373d 2481 20be fe58 f4be
00000080: 3f9e 463e b668 97be 11c4 d93e 140d 17bf
00000090: 5b6f bcbe 2d89 11bf 8993 10bf e651 033f
000000a0: 53ef d2be 319d afbe 0e92 e33e 20c7 32be
000000b0: 8ab1 0cbe 3db8 023f 399b 96be d40d 1dbf
000000c0: 14a7 733f 17e5 ccbe a2f6 2a3f 42ec 35bf
000000d0: 44b2 61be 1017 943f cb73 39bc c138 98be
000000e0: 6863 c1bd b238 243f 55eb b2be b184 25bf
000000f0: 5cc6 c5bc 87dc e33e ee50 bbbd 0a51 a3be
00000100: c251 2c3e 1245 4f3e f850 1d3e f35e 213e
00000110: c3c4 b53d f7f5 793c c62e 173d 127a d8bd
00000120: 6184 043e 45de 363c 0503 883c c778 95bd
00000130: 035e 9dbd 193b 063e 2cab 163d a666 7c3d
00000140: 059d 69be 804f d8bc b49f f1bc 7229 ac3c
00000150: 32c7 0d3e d8e7 1abe 39aa 313e 44b6 043c
00000160: 60fa 963d a271 29be 1282 8a3c 93a2 00be
00000170: d854 19be 1ecd 28be 51fd a93c 10d3 5f3c
00000180: f1ed 02bd b94e 39bc 9607 053e 3d22 6e3e
00000190: 64e5 fd3d e52c 253e 9d67 193c 9dc1 09be
000001a0: e4f4 de3c 7abf 413e 0160 bbbd 56c1 35be
000001b0: 0332 e23d a121 0ebd aa4e dbbd 2d59 3a3e
000001c0: 1fe5 a8bd 43d9 8dbd 08d2 36be d177 863e
000001d0: e6de 253e 9fe9 78be 51a3 5dbd 1922 bcbc
000001e0: 150f 143d e644 39be 31c3 eb3c d4b3 a63d
000001f0: b900 033e fe1d 983c 56ab 18bb 7d8b a9bd
00000200: 081f 2a3e b601 273e 9870 ffbc 1d53 88be
00000210: 69de 6e3d 7136 21be 2a9d d0bd 129e a83d
00000220: 2888 f93c ce98 98bd 0f10 593e caba eb3d
00000230: 628e 5b3d b0c4 debc 0497 073e 1ff0 d4bd
00000240: 841a ad3d bdd7 e03d 2782 073d 7434 d03c
00000250: 7714 0a3e cf11 763c bd5e 4d3e 3582 a7bd
00000260: 75e8 223e ee3f 26be 6787 4d3d 616f 8c3d
00000270: d67f 51bd 3600 77be 1a76 cd3a 1774 b3bc
00000280: bbcd be3d 2ec8 0e3d e564 d43d 932c 7abc
00000290: cb0c b13d 588b cc3c bfef 953d d2dd d9bd
000002a0: 7d5f 473c 5757 8c3e 64a0 88be 8424 08be
000002b0: 6bd9 263e e332 a13e 6a1d 4abd 5865 47be
000002c0: 2641 b3be b342 f63d ec38 ef3c 6554 c53e
000002d0: 812c 083e 7891 d2be 8bef 16bc 3395 35be
000002e0: cb3b 5ebe 8f42 f13d 28e5 efbd 8c87 993d
000002f0: 799a 613e e9bd 073c 3bbc 873e 6d9f ce3d
00000300: 31a6 143c ed43 2cbd d517 f43d 8eec ee3d
00000310: 3fdf 11bd 9e6f b93d 549b 083e 3ef9 a1be
00000320: fc5e 03bd a303 36bd 4a46 44bd 699e e93c
00000330: 23a0 f8bd ba3c 203e 0766 3ebe a688 cd3d
00000340: 5f08 b2bd 1b4f 1d3e 5224 983d 7263 573e
00000350: 5679 7e3e 53f9 88be 7b1e 1e3b 0e32 0abe
00000360: f5ec fdbd 1830 8bbd 18bb 28be 2c64 353d
00000370: 5a46 d03d 7d3f 02be 6214 d9bd 0605 083e
00000380: 2cd7 65be ead0 b73b d295 d8bd 7491 733e
00000390: 71b1 a83e 798d 0dbe 76cf d5bd e34a 5fbe
000003a0: 9e5f 6c3d 3fc8 123e 9e6a 17be 828e 07bd
000003b0: 74ff 673e cd26 a33d e873 e63a f67c 85bd
000003c0: e426 89be a645 a03e 6837 23be 303a d13e
000003d0: 1a44 7e3e 627d aabe bb36 163d a9e2 31be
000003e0: e9a1 a1bd 9e52 783d 9c16 033e 84cb 63bd
000003f0: 9452 a13c 0431 b9bd ae0b b23c 1d4f 813e
-0.1280007 0.1673211 -0.28270116 -0.13980669 -0.16667558 -0.07681781 0.70065945 -0.7487268
-0.65480137 -0.12443852 -0.08597966 -0.34679303 -0.99471194 -0.810534 0.35106388 0.82665914
0.8991663 0.13014893 -0.4689611 -0.14598289 0.2547791 0.2283968 -0.5499302 0.30750448
0.112821415 -0.011894602 0.88110197 -0.22116674 0.07019169 0.04481645 -0.15674263 -0.47724146
0.19396304 -0.29572076 0.425324 -0.5900433 -0.36803707 -0.5684994 -0.5647512 0.5129684
-0.41198215 -0.34299615 0.44447368 -0.17458773 -0.13739601 0.51062375 -0.294153 -0.61349225
0.95176816 -0.40018532 0.6678258 -0.71063626 -0.22040659 1.1569538 -0.011319111 -0.297308
-0.09442788 0.6414901 -0.3494517 -0.64655596 -0.024142437 0.44504187 -0.091462955 -0.31897765
0.16828063 0.20241192 0.15362918 0.15758877 0.0887542 0.0152563965 0.03690984 -0.10570158
0.12941124 0.011161392 0.016603002 -0.07298427 -0.07683947 0.13108481 0.036784336 0.06162133
-0.22813804 -0.026405096 -0.029495098 0.021015856 0.13845518 -0.15127504 0.17350091 0.008100096
0.07371974 -0.16547254 0.016907725 -0.12562017 -0.14973772 -0.16484496 0.020750673 0.013661161
-0.0319652 -0.011310273 0.12991175 0.23255248 0.123972684 0.16130407 0.009363082 -0.13452764
0.027216382 0.18920699 -0.09149171 -0.17749533 0.11044695 -0.03470004 -0.10708363 0.1819808
-0.082468264 -0.06926205 -0.17853558 0.26263288 0.1619831 -0.2430787 -0.05411083 -0.022965478
0.036147196 -0.18092689 0.028779598 0.08139768 0.12793244 0.018568989 -0.0023295484 -0.082785584
0.166134 0.16309246 -0.031181619 -0.2662591 0.058317576 -0.15743424 -0.10186227 0.082332745
0.030460432 -0.0745102 0.21197532 0.115102366 0.053602584 -0.027193397 0.13241202 -0.10397362
0.08452323 0.10978649 0.033083107 0.025415637 0.13484369 0.015018894 0.20055671 -0.08179132
0.15908988 -0.16235325 0.050177958 0.06857181 -0.051147304 -0.24121174 0.0015675456 -0.021905942
0.09316584 0.034858875 0.103708066 -0.015269416 0.08645018 0.024968788 0.073211186 -0.10638012
0.012168762 0.27410385 -0.26684868 -0.1329518 0.16293876 0.31484136 -0.049344458 -0.19472253
-0.35010642 0.120244406 0.029201947 0.3854095 0.13298227 -0.4112661 -0.009212385 -0.17732696
-0.21702497 0.11780273 -0.1171363 0.07496557 0.22031583 0.008285024 0.26510796 0.10089002
0.009072826 -0.042056967 0.11918608 0.11666213 -0.035613295 0.090544924 0.13340503 -0.3163547
-0.032073006 -0.044437062 -0.047918595 0.028517919 -0.12139919 0.15648165 -0.18593608 0.10035829
-0.08693003 0.15362208 0.074288025 0.21034029 0.24850973 -0.2675272 0.0024127054 -0.13495657
-0.123987116 -0.067962825 -0.1647762 0.044284984 0.101696685 -0.12719531 -0.10599591 0.13283166
-0.22445363 0.0056096213 -0.10575451 0.23785955 0.32947877 -0.13823499 -0.10439961 -0.21805911
0.057708375 0.143342 -0.14786765 -0.03309489 0.22656041 0.07966385 0.001758215 -0.06517975
-0.26787484 0.31303138 -0.15939105 0.40864706 0.24830666 -0.33298784 0.03667329 -0.1737162
-0.0789221 0.060625665 0.12801594 -0.05561401 0.019692697 -0.09042552 0.021734085 0.2525567

cell.layer_context.bias f4 [34]
00000000: 7184 83bf 9892 8cbf 973b 68bd 1e23 aebd
00000010: dacd 183d 99af 623b 53a0 c2bc f511 e23d
00000020: 9a88 b4bd 8ee7 1cbd a1df 3bbd 49bc 98bd
00000030: dc94 a6bd b605 babb a69a a93c 7af4 813b
00000040: a90e cfbd 824a 563e 5773 0a3e cf9d 9e3d
00000050: c563 88bd 7ea7 0a3d 62cb f73d d017 173e
00000060: f9de 153d 4621 153e a5d9 07be 404c 893c
00000070: 135b 8f3e 8f4b 43bd 4871 de3d 15c0 4f3e
00000080: 885e 07be a37d 803c
-1.0274793 -1.0982237 -0.056697454 -0.08502792 0.03730569 0.0034589528 -0.02375809 0.11038581
-0.08815117 -0.038306765 -0.045867566 -0.074577875 -0.081338614 -0.0056769503 0.020703625 0.0039659115
-0.10110218 0.2092686 0.13520561 0.07744943 -0.066596545 0.03385114 0.12099339 0.14755177
0.036589596 0.14563474 -0.13266619 0.016759992 0.27999172 -0.04767948 0.108614504 0.20288117
-0.13219655 0.015684908

cell.layer_inputs.weight f4 [34, 2]
00000000: 84ad df40 3421 923d 1f10 4fbe 2ef2 e240
00000010: 45c8 ac3e 3e12 45bf 103a 03be 22c7 32be
00000020: e5bc 0a3f e3d7 14be b6d0 3ebf e58a 823e
00000030: eee5 ee3e 5b78 383f 02b3 dfbe fcd4 07be
00000040: 1805 8abc d397 56be 6fba a93d c74b 90bf
00000050: 64e9 713e 2e78 02bf fc0a 153e 76af 463f
00000060: 21e4 5d3e c8ee 6cbf a7b1 813f 70fa 3dbf
00000070: bc1a 873e ead0 f33e 5bb8 743f ade5 bd3e
00000080: a4c0 cdbe d995 31bf 25af a9bf cc4a b43e
00000090: a471 97bf a7dd 68bf 60d9 2a3f 0867 363e
000000a0: 3cd6 2e3f 12c8 58bf 586a 713e 2c73 923f
000000b0: 5bac 963e c418 093f ff3c 09bf baaf a1bf
000000c0: a058 703f 1024 3dbf 037f 81be 1f7f 1abf
000000d0: b942 373d 1370 5bbf 4cc1 933e f9cd 08be
000000e0: 21c0 87bf f694 96bd 3c92 2bbe 471f e4bd
000000f0: 50da b2bd 8156 c53e 10a4 febe 4776 1f3e
00000100: 6c70 18bf 6388 813f df63 52be 8f3a 383f
6.989931 0.07135239 -0.20220993 7.092063 0.33746544 -0.7698096 -0.12815118 -0.17458776
0.5419448 -0.14535479 -0.7453722 0.25496593 0.46659797 0.7205865 -0.4369126 -0.13264841
-0.016848132 -0.20956354 0.082875125 -1.1273125 0.23624188 -0.5096463 0.14554971 0.7761148
0.21669056 -0.9255185 1.013234 -0.7421026 0.26387584 0.47620326 0.95593804 0.3708929
-0.40186036 -0.69369274 -1.3256575 0.35213315 -1.1831555 -0.90963215 0.6673794 0.17812741
0.68295646 -0.84680283 0.23575723 1.1441398 0.29428372 0.53553414 -0.536087 -1.2631752
0.9388523 -0.7388315 -0.25292215 -0.6035022 0.044741366 -0.85717887 0.2885841 -0.13359822
-1.0605508 -0.07352631 -0.16755003 -0.11138778 -0.08733046 0.3854256 -0.49734545 0.15572463
-0.5954654 1.0119747 -0.2054591 0.71964353

cell.layer_inputs.bias f4 [34]
00000000: beea c8bf 5605 bbbf d9fe eabd 1b2d c9be
00000010: 89b9 75be 01f7 92be 293d 95be 180d fabe
00000020: 3003 283f 5d0f ac3e e4a8 8abe 7dd7 d03e
00000030: a550 8fbe 6a86 15bf 2822 e63d 89ab a9be
00000040: 8b37 093f ca9e 03be 02c2 bebe 3422 053f
00000050: 363a 033e 3094 9f3d 2976 52bd f7a8 ccbe
00000060: d807 153e 167b 2ebb 3ee1 edbe 6b57 c63e
00000070: b15d 00bf 8660 efbe c81b 2cbe 2a5c 18bf
00000080: 33a6 1fbf 2fea 96be
-1.5696638 -1.4611003 -0.114743896 -0.39292225 -0.23996557 -0.28704074 -0.29148224 -0.48838115
0.65629864 0.3360547 -0.27081978 0.40789405 -0.27991214 -0.58408225 0.112369835 -0.33138683
0.53600377 -0.12853542 -0.3725739 0.52005315 0.12815174 0.077919364 -0.051382218 -0.3997266
0.14553773 -0.0026623658 -0.4646091 0.3873857 -0.5014296 -0.4675333 -0.16807473 -0.5951563
-0.62362975 -0.29475543
